simPPO/PPO_LunarLander-v2.pth (torch_old, 7422 bytes, 7 tensors)

action_layer.0.weight f4 [64, 8]
000000 29 6e 3f 3f f2 9c 77 bd 5c 7b b3 3e 9a 27 c6 3e
       0.74777466 -0.06045241 0.35055053 0.3870209
000010 08 9b 57 bf 05 89 3f 3e c3 cc 6a be fb 85 cb bd
       -0.84220934 0.18704613 -0.22929673 -0.09937664
000020 b9 6c 2a be 03 72 5d 3e aa 36 70 3d 3a 7c 82 3f
       -0.16643037 0.21625523 0.05864588 1.0194161
000030 1b 65 13 3f 3d 43 9d bd 44 37 9f be 66 ea 74 3e
       0.5757615 -0.0767884 -0.31096852 0.23917541
000040 b2 32 8c be 68 9f 48 3d ea 3a 5f 3d 2a f4 11 3f
       -0.27382427 0.048980147 0.054499544 0.5701319
000050 f3 83 5b 3f 29 8f 09 3e 87 b6 d1 bd b1 60 c3 be
       0.85748214 0.13433518 -0.102398925 -0.38159707
000060 33 ad f2 be f3 a8 47 be 74 c4 e9 3c 1f 3f 85 bf
       -0.47397766 -0.19498043 0.028536059 -1.0409888
000070 aa 5c a0 3e 3b 7f a3 be 47 f9 a5 3e 59 f2 ea bd
       0.31320697 -0.31933007 0.32416746 -0.114720054
000080 6c d9 e1 bb 94 f7 b3 3c 71 a4 40 be 53 62 45 3f
       -0.006892374 0.02196864 -0.1881273 0.77103156
000090 0a ab 42 3f 80 fc 31 3f 52 69 4c 3e e4 ef a8 be
       0.76042235 0.6952591 0.19962052 -0.32995522
0000a0 b0 ec a7 bd bb d2 ef 3b a2 07 a8 be f5 f3 78 3f
       -0.081994414 0.007318822 -0.32818323 0.9724725
0000b0 14 85 3d 3f 63 c9 80 bd 1c 96 91 be 1d 79 5f 3e
       0.74031186 -0.062884115 -0.28434837 0.21823545
0000c0 58 e4 13 3f 6e 4a 14 3e f1 69 a6 be db 86 a3 3e
       0.577703 0.14481518 -0.32502702 0.31938824
0000d0 c1 b1 76 be 7a 68 5f 3e dc 2c 1e 3e d1 19 6f bd
       -0.24091245 0.21817198 0.154468 -0.05837423
0000e0 30 60 18 bf 0d c3 63 3e c6 4d 9f be 94 7f 50 be
       -0.5952177 0.22242375 -0.31114024 -0.20361167
0000f0 7c 1a ad 3b 9f 73 9c bc c5 35 4f 3e 85 d9 91 3e
       0.005282698 -0.019098101 0.20235355 0.28486267
000100 b2 0c 89 be c4 6e f9 3e 74 c1 9d be ca 13 b2 3f
       -0.26767498 0.4871732 -0.30811656 1.3912289
000110 cb f8 1b 3f bc bf e9 bc bc b9 6c be 08 4d c1 3e
       0.609265 -0.028533809 -0.23117727 0.37754083
000120 80 87 16 bf 94 c7 12 bf cd 23 f0 be 20 1f 58 bf
       -0.58800507 -0.5733578 -0.46902314 -0.84422493
000130 af 56 8f 3f 3e b0 0e be b3 b9 37 3e e5 8c 4a be
       1.1198329 -0.13934419 0.17941932 -0.1978031
000140 9b da 86 be 95 44 bb be 25 46 16 be c0 91 ab bf
       -0.26338658 -0.3657576 -0.14675196 -1.3403854
000150 94 7a 66 3e e1 9b e3 be 8e 71 6e 3e ed 74 46 bd
       0.22507697 -0.44454864 0.23285505 -0.048451353
000160 d6 fc 48 3f 9f 13 f1 3d 24 d0 87 3f 78 a5 c5 3e
       0.785108 0.117713206 1.0610394 0.38602805
000170 c2 92 b4 bf 54 48 40 c0 af 2e 02 3f dd 72 bb 3e
       -1.4107287 -3.0044146 0.50852484 0.3661107
000180 a4 a4 84 3f 97 20 85 be bb 01 9f 3f a3 0e 9f be
       1.0362744 -0.26001427 1.2422403 -0.31065854
000190 e1 b3 b9 bf 7d 45 17 c0 7c 82 02 3f 93 51 33 be
       -1.450802 -2.3636162 0.50980353 -0.17511587
0001a0 a8 df 02 be 99 6b d6 3d 38 43 f7 3d 64 e2 78 bf
       -0.1278063 0.104697414 0.12073368 -0.97220445
0001b0 35 c8 fd be e6 cf 05 bd 24 43 07 3f ed 8f 63 be
       -0.49566808 -0.03266897 0.52836823 -0.22222872
0001c0 f6 55 67 bf 0c 5d 11 bf bf 8c e2 be 09 fd 54 bf
       -0.9036554 -0.56782603 -0.44248006 -0.831986
0001d0 4d 91 43 3f 08 b1 c6 be be d6 6c 3d 56 46 f1 3d
       0.76393586 -0.3880694 0.05782198 0.11780994
0001e0 11 44 d0 be 3e a9 75 3e b7 fe e3 3c 9a ae 39 bc
       -0.4067693 0.23990342 0.027831418 -0.011333132
0001f0 f1 b0 06 be 41 fe e8 bd 67 44 30 3e e4 2a a9 3e
       -0.13153435 -0.1137662 0.17213593 0.33040535
000200 dc a6 51 bf 6a e6 18 3e 80 61 84 bd 72 3a fe be
       -0.8189523 0.14931646 -0.06463909 -0.49653965
000210 a4 97 51 3f 91 88 a1 be 2c e7 eb 3e fb 60 f3 bd
       0.8187201 -0.31549504 0.46074808 -0.11883732
000220 8f a9 cd 3d d5 cd f5 bd 63 49 01 bd 68 1a d5 bd
       0.10042106 -0.1200215 -0.031564128 -0.10405427
000230 2f 44 cf be 7a 97 fe 3d c2 0c 64 be 02 be fa 3e
       -0.40481707 0.124312356 -0.22270492 0.4897309
000240 6e 0e 2a bd d5 cf ac 3e c6 83 a7 3d 8c a2 98 3f
       -0.041517667 0.33752313 0.08179431 1.1924605
000250 b4 b7 84 3e 1a c1 d1 3e 0e c2 bb bd 65 85 a2 bd
       0.25921404 0.40967637 -0.09167872 -0.07935599
000260 b2 ad 1c bf f9 27 d2 be 7e 18 16 be 1f 3b 7a bd
       -0.6120254 -0.41046122 -0.1465778 -0.06109154
000270 95 aa a6 3f d3 8e 0e bd 42 b8 98 3d f9 7a 40 3e
       1.3020808 -0.034804177 0.074570194 0.1879691
000280 6d c8 15 3f 62 d7 08 3f 53 73 af be d7 92 8b 3e
       0.5850895 0.5345365 -0.34267673 0.27260467
000290 69 2a b9 be 26 a3 da 3e ac b1 90 3e 99 0f 62 be
       -0.3616517 0.42702597 0.28260553 -0.22076263
0002a0 28 9f 56 bf 3f cf 1b be 40 11 85 be 77 33 3e bf
       -0.83836603 -0.15215777 -0.25989723 -0.7429728
0002b0 9e 2d 35 3f d0 d3 32 bd ed ac b2 bd fd 3d da 3e
       0.7077273 -0.04365903 -0.08724389 0.42625418
0002c0 40 78 d4 3d 6c e1 80 bc 03 49 bc be 6f c1 7f 3f
       0.10374498 -0.01573249 -0.36774454 0.9990453
0002d0 ee 6a 5a 3f 43 4c 6b 3e 3b 00 03 3e 9a e5 d4 be
       0.8531941 0.2297831 0.12793057 -0.41581422
0002e0 ee 9b 95 3e 1d 44 df 3e ab 65 b9 3e ea fb 77 3f
       0.29220527 0.43606654 0.3621038 0.96868765
0002f0 36 86 06 bf dd cb ad 3e 23 ba 87 be 51 fb 56 3e
       -0.5254854 0.33944598 -0.265092 0.20994307
000300 12 4b 26 bf c0 e4 e5 3d f5 15 06 be 5b 00 bb 3d
       -0.649583 0.11225271 -0.13094313 0.09130927
000310 f6 e6 10 3f 0b 39 19 3e 77 6d 8d 3d db c5 8d 3d
       0.5660242 0.14963166 0.069056444 0.069225036
000320 06 8f 61 be fc 80 04 be 86 40 89 3e c1 58 7b bf
       -0.22027215 -0.12939829 0.2680704 -0.981823
000330 c9 e1 03 bf 3f 3a 7e bf 0e b5 8c 3d b2 a9 42 be
       -0.51516396 -0.99307626 0.06870471 -0.19010046
000340 0a b8 b5 3e 5c fb 6c 3d 9e 04 51 3f dc fc 3b bf
       0.35491973 0.057856902 0.8164767 -0.7343271
000350 91 60 b1 bf 1d c0 cd bf a8 8d 40 bd b5 df a4 be
       -1.3857595 -1.6074253 -0.047010094 -0.32201925
000360 0a 1a bc bd da 8f 04 bf e6 55 16 3f 7f 29 26 be
       -0.09184654 -0.51782 0.5872482 -0.16226767
000370 4a 8c db be ac fe 84 be 98 69 ec be de 1c f7 3e
       -0.4288047 -0.2597555 -0.46174312 0.4826421
000380 41 c1 1f 3f 67 de e7 3e 58 df ad 3e 3b bf 62 3f
       0.6240426 0.45286867 0.3395946 0.88573045
000390 73 b3 bd be 64 fe 94 be b0 b1 28 be f3 31 42 bd
       -0.3705097 -0.29100335 -0.16474032 -0.047410917
0003a0 82 a8 1e 3b f6 4d 95 be 2e 22 5b 3b 0c ed 70 bf
       0.0024209325 -0.29161042 0.003343712 -0.94111705
0003b0 79 fa 10 bf ca 0b a2 3d 3f 75 94 bd c1 8a 9f 3e
       -0.5663219 0.07912405 -0.072489254 0.31160548
0003c0 5b 04 85 be f9 87 ad be 18 1c 9c be 0f 28 a6 bf
       -0.25979885 -0.338928 -0.30490184 -1.2980975
0003d0 e9 1a 8d 3e 42 73 91 bd 79 5a 64 bd df 54 9f 3e
       0.27559593 -0.07102062 -0.055750344 0.3111944
0003e0 cb 09 d4 be 58 74 d3 bc 10 54 31 3d 60 51 88 3f
       -0.4141372 -0.025812313 0.04329306 1.0649834
0003f0 96 f7 d9 3e 4f 63 17 be c3 96 b9 be b8 f9 0e 3f
       0.42571706 -0.14783977 -0.36247835 0.5584979

action_layer.0.bias f4 [64]
000000 a3 2c 35 3e 30 9f 56 3e 1d c2 36 3e c5 a8 7d be
       0.17692809 0.20959163 0.17847486 -0.24771412
000010 e4 c9 83 3e 54 95 55 3e 2c ba e3 3c fa 73 40 be
       0.25739968 0.20857745 0.027798735 -0.18794242
000020 07 1a 2a 3e bd ae b1 3d e8 32 4a be c8 48 43 3c
       0.16611491 0.08675907 -0.19745982 0.011919208
000030 b1 72 45 3d 65 b3 b0 be f1 04 39 3d 76 1f 3b be
       0.04820508 -0.34511867 0.045170728 -0.1827372
000040 9c e8 44 be 28 62 f2 bc da ee 1e 3e 8b a4 34 3e
       -0.19229358 -0.02958782 0.15520802 0.17640893
000050 87 05 0f be 20 ad 2c be 8d 1f a4 3e ab 0a 91 3d
       -0.13966952 -0.16862917 0.3205532 0.07082113
000060 5b 85 80 bd 2a 7d 87 be cb 6c c7 be 48 d7 eb 3d
       -0.062754355 -0.2646268 -0.3895019 0.11515671
000070 d6 e0 73 3d 53 40 21 be 3e b5 f9 bd de 13 a4 3e
       0.059540592 -0.15747194 -0.12192772 0.32046407
000080 1f 9e 28 3e a0 cd 74 bc 48 2f 99 3e ae 31 cc 3d
       0.16466568 -0.014941603 0.29918885 0.09970413
000090 59 5b 7f bd 61 1c bd 3d 62 ca 68 3e 50 ea c8 bd
       -0.062342975 0.092339285 0.22733453 -0.098103166
0000a0 b1 ac 7e 3e 6c 61 f7 3d 59 cf bf 3e 8e b3 6f 3e
       0.24870564 0.120791286 0.3746288 0.23408338
0000b0 5a 91 13 3e 0c 15 3c be 3b 3d a1 3c 3d 62 7e bc
       0.14410916 -0.18367404 0.019682517 -0.0155263515
0000c0 67 6a 5a 3c 78 be 16 be 1a a9 3e 3d 8e 48 86 be
       0.013331032 -0.14721096 0.046547987 -0.2622723
0000d0 a1 df 6f be 78 61 f8 bd ee 89 86 3e 2f cc df bb
       -0.23425151 -0.12127966 0.26277107 -0.0068297605
0000e0 4e 3b 43 3e fb 75 2f 3e 35 d2 5b bc e2 52 69 bc
       0.19065592 0.1713485 -0.0134168165 -0.014240952
0000f0 be a4 e7 bd df ea 88 bc be 67 aa be d6 99 5e 3e
       -0.11310719 -0.016713558 -0.33282274 0.21738371

action_layer.2.weight f4 [4, 64]
000000 90 bd 6f bc 59 ff 48 3e 4a 76 e6 bd 07 6b 9f be
       -0.014632598 0.19628657 -0.112530306 -0.31136343
000010 a7 ae 48 3d a8 57 25 3e ac 8e 31 bc 09 19 c5 3d
       0.048994686 0.1614672 -0.010837238 0.09623916
000020 ca 51 1a 3f dd 2a 3b be 8a 8d de be 7d d4 85 3e
       0.6028105 -0.1827807 -0.4346736 0.26138678
000030 1d 7c 1d bd e5 dc 41 be 9f 89 88 bd d4 f8 31 3e
       -0.03844844 -0.18931921 -0.06666874 0.17380077
000040 c8 86 32 be 47 9c e9 3d 0a 6a 13 3e a9 db c2 3d
       -0.17434227 0.11406761 0.1439592 0.09514553
000050 6d b0 b1 bd 76 6f a2 3d 8c ab 70 3d e7 0e 94 3e
       -0.08676229 0.07931416 0.05875735 0.2891762
000060 af e3 3c 3d d3 da 90 be 9a 67 f1 be 1e d0 88 3e
       0.046115573 -0.2829195 -0.47149354 0.2672128
000070 b1 2f 10 bd 52 a8 a5 3b 66 c7 19 be 09 21 08 3f
       -0.035201732 0.0050554657 -0.1501747 0.5317541
000080 80 19 f1 ba 70 26 02 be 3e 75 a5 3e fc b2 dc 3b
       -0.001839444 -0.12709975 0.3231601 0.006735204
000090 24 1a 56 be f9 aa c2 bc ef cc 73 3e a9 76 14 be
       -0.2090841 -0.023763167 0.23808645 -0.1449839
0000a0 b2 ed 12 3f 15 7b 6d be 41 2a 09 3f 19 00 5e 3d
       0.57393944 -0.23191483 0.535801 0.054199312
0000b0 4c 95 2e bd 52 9f 48 be f8 42 21 3e 86 94 24 be
       -0.04262285 -0.19592026 0.15748203 -0.16072282
0000c0 4e 04 83 bc 29 d1 98 be 90 05 87 3e e9 35 a6 be
       -0.015993264 -0.29847077 0.2637143 -0.32463005
0000d0 6b 34 3a 3e 3a 6c 80 bd 04 1d 85 3e f4 17 08 3e
       0.18184058 -0.062706426 0.259987 0.13290387
0000e0 b0 6e 9e 3e b2 ec d6 bc 9f 16 c5 bd de ac b0 be
       0.30943823 -0.026235912 -0.09623455 -0.34506887
0000f0 e1 17 be bd 8d 68 d0 bd 3a b4 d2 be e8 fd 9f 3e
       -0.09281898 -0.101761915 -0.41153127 0.31248403
000100 a3 2d 06 3e 8a da 43 3c 21 50 2c 3e b3 e8 41 be
       0.13103347 0.011953959 0.16827442 -0.18936424
000110 ba 5e 0d bb cc fc 0a bc e1 00 f4 bd a0 7c 72 be
       -0.0021571354 -0.008483123 -0.1191423 -0.23680353
000120 d5 8d 59 3d b0 32 c9 be 35 f5 dd be 38 45 5d 3f
       0.053113777 -0.39296484 -0.4335114 0.86433744
000130 d4 27 3c 3f 1d 92 cd bd 86 3d 0a bf 1c 29 85 bd
       0.7349827 -0.100376345 -0.5400013 -0.065019816
000140 47 9e 55 be e7 02 c7 bd a8 ad 37 3e 15 8d bb be
       -0.2086116 -0.097173505 0.17937338 -0.36631075
000150 2f 2e 21 bd 73 98 2c be cb d1 f1 3d 06 18 75 3e
       -0.039350685 -0.1685503 0.11807593 0.23934945
000160 a3 48 93 bc 4d 65 fe 3d 36 03 2b 3f b5 b4 c0 3c
       -0.017978972 0.12421665 0.66801775 0.023523668
000170 e0 14 fa 3d 98 3b 27 be 2c 29 f1 be 54 56 91 bd
       0.12211013 -0.16331327 -0.47101724 -0.07096544
000180 98 e8 70 3e 52 fc 52 bd e7 e0 0e 3e ff 41 b8 bd
       0.23526227 -0.051510163 0.13952981 -0.08996963
000190 a4 60 4b 3e 45 11 86 3c a0 5b 14 3f 1f 9e a8 bd
       0.19861084 0.016365657 0.5795231 -0.08233284
0001a0 ee f8 6e 3e 83 ea 83 3e 3f ce 08 3e 84 95 82 3d
       0.23337147 0.25764856 0.13359927 0.06376174
0001b0 3d 9e 8d bc e9 90 3b 3e 9f 64 bf bb 59 dc 95 be
       -0.017287368 0.18316998 -0.0058408524 -0.29269674
0001c0 7f c9 73 be ed 98 80 be 1e 44 8a bd e4 5a b8 be
       -0.23807333 -0.25116673 -0.067512736 -0.36006844
0001d0 b9 b8 1f be eb 8d e4 be 7f 97 b0 3d 8d b6 0a be
       -0.1559781 -0.44639525 0.086226456 -0.135462
0001e0 6e 72 0d be 29 a3 12 3e 7b fa 98 3d c3 c4 f5 3e
       -0.13813183 0.14320053 0.0746965 0.4800168
0001f0 50 19 23 3d 19 ad 22 3e 9e 4d 59 bd 9e 26 cd 3d
       0.03981906 0.15886344 -0.053052537 0.10017131
000200 34 f7 c1 bd da 3b 11 bf 3e be 03 be ae 4f b7 3e
       -0.094709784 -0.5673195 -0.1286554 0.35802978
000210 16 36 6b be af 99 a9 be dc 3f 48 3d b0 a7 15 bc
       -0.22969851 -0.33125064 0.048889026 -0.009134218
000220 86 74 69 bf 67 55 d0 3e d6 3f 58 3f 9b ad 07 bf
       -0.91193426 0.40690157 0.84472406 -0.52999276
000230 dc cf 37 bd 2f b6 c3 3e b4 4e b4 3e bd 55 06 3d
       -0.044875965 0.38224933 0.35216296 0.03279661
000240 cd de aa 3d 8c e2 2c bb e2 d6 16 bf 33 7c 88 bd
       0.08343277 -0.002638015 -0.58921635 -0.06664314
000250 1f ca 9c bc 59 78 08 3e 82 8a ac be aa 07 88 be
       -0.019139348 0.13327159 -0.33699423 -0.26568347
000260 52 f4 28 bd 47 6e 02 3f 8d 9c 46 3f 89 75 4c 3d
       -0.041248627 0.5094952 0.7758263 0.049916778
000270 49 f8 41 be 14 b7 71 3e af 07 29 3f 67 3f d2 be
       -0.1894237 0.23604995 0.6602735 -0.41063997
000280 89 e3 66 be bf fa cb 3e 96 16 46 bf 6f a4 8e bd
       -0.22547735 0.39839742 -0.77378213 -0.06964957
000290 ee 9a 77 be 2a d1 0f be 60 87 43 bd bf be ee 3d
       -0.24180195 -0.14044634 -0.047736526 0.11657476
0002a0 bf 0a 86 bf 84 a3 37 bd f3 fc 3b bf ea c1 a3 be
       -1.047203 -0.044833675 -0.73432845 -0.31983882
0002b0 85 97 34 be 8d b4 c5 3e c4 9d 24 be 25 1e ab 3e
       -0.17635925 0.38614312 -0.16075808 0.33421436
0002c0 fc d1 0d 3e d0 bc 84 3d 42 02 3c bd a0 ac b3 3e
       0.13849634 0.064813256 -0.04590059 0.3509264
0002d0 d1 12 57 3d f3 52 1e 3f b3 12 a2 be 06 64 37 3c
       0.05250818 0.6184532 -0.3165489 0.011193281
0002e0 27 73 00 bf 50 86 dc bd 11 7d bc bd 60 42 0e bf
       -0.5017571 -0.107678056 -0.09203542 -0.5557003
0002f0 6d 6b b5 3e a7 5d 37 3b b2 29 ee 3e 39 69 2b bf
       0.35433522 0.0027979405 0.46516186 -0.6695743
000300 59 8a 0f be 4b 3f 51 3e ad 8b 0b 3e 4a 02 d1 bd
       -0.14017619 0.204343 0.13627501 -0.10205515
000310 47 22 98 3e 82 ae 76 3e af b7 d0 3b 97 96 e3 bd
       0.29713652 0.24090007 0.006369553 -0.11112707
000320 00 53 3c 3f c2 2d af 3e 90 d6 2e be 62 42 73 bf
       0.7356415 0.34214598 -0.17074037 -0.9502317
000330 83 1c 9b bf 51 cd 25 be 1e c2 3f 3e 85 98 fe bd
       -1.2118076 -0.16191603 0.18726394 -0.124314345
000340 83 cb 35 3e 97 bb 06 bd 48 c0 87 3e 28 79 95 3e
       0.17753415 -0.032893743 0.26513886 0.29193997
000350 62 a7 f4 3d e8 b0 0a 3e 4c 37 cb 3e 40 d3 97 3d
       0.11945988 0.13544047 0.39690626 0.074133396
000360 c4 c9 4b 3b d3 82 8f be 88 49 80 bf e7 18 6d be
       0.0031095603 -0.28029498 -1.002244 -0.2315403
000370 18 73 ca bd ef f8 80 be d1 89 00 be 66 4c 6e 3e
       -0.09885234 -0.2518992 -0.12552573 0.23271331
000380 36 9f 2b ba cd 2c ab bd b3 93 20 3f ef fb 0f 3d
       -0.00065468566 -0.083581544 0.6272537 0.035152372
000390 9d 9f 14 3f 72 1f f4 3b 91 cd 40 bf f9 43 fe bd
       0.5805605 0.0074500376 -0.7531367 -0.124153085
0003a0 2b a1 8a 3e 5e 38 51 bc 53 31 07 3f f6 a9 39 bc
       0.27076086 -0.012769787 0.5280964 -0.011332026
0003b0 e5 a4 e5 3c 19 c3 ab be ec bc 55 3d b3 66 70 be
       0.02803273 -0.33547285 0.052182123 -0.23476677
0003c0 dc 95 9e 3d df d0 b0 3e bb 8c 9c 3d fa b9 59 3d
       0.07743427 0.34534356 0.0764403 0.053155877
0003d0 88 c9 21 be dc 63 a8 3d 16 27 5e 3e fa 20 a1 3c
       -0.15799534 0.08222172 0.21694598 0.019669045
0003e0 76 00 22 3e 6a 8a a4 3d 77 4e 22 3d d7 32 20 3f
       0.15820488 0.08034213 0.03962561 0.62577575
0003f0 c5 bb bb be 21 7c 51 be 33 4f 8a 3e 22 ea 19 3f
       -0.36666694 -0.20457508 0.2701355 0.60122883

action_layer.2.bias f4 [4]
000000 4c 14 8e 3e e0 ce 9c be 7a b4 a8 3d c4 9b 64 be
       0.2774986 -0.30626583 0.08237548 -0.22325045

value_layer.0.weight f4 [64, 8]
000000 be f0 19 3f 8f f0 c2 3d d0 32 dd be bd 3a 7d bd
       0.6013297 0.09518539 -0.4320283 -0.061823595
000010 56 cd b6 be 35 88 dd 3e 9f 9b bc be 13 3c 56 3e
       -0.35703534 0.4326798 -0.3683748 0.20921354
000020 37 42 6f bf 54 5c c2 3e 50 2d f6 be d2 10 1c be
       -0.9346041 0.37961066 -0.48081446 -0.15240791
000030 7d 22 d4 3d 9d d4 62 bf 12 c9 32 bd 18 93 d4 3d
       0.103581406 -0.8860567 -0.043648787 0.103796184
000040 24 8f 5b be 96 8f c0 3d 0c 8c 9c 3e 6b 27 a7 3f
       -0.21441323 0.09402387 0.30575597 1.3058904
000050 a6 e5 01 be 85 cf 95 3d be 29 db be e6 cb 75 3f
       -0.1268526 0.07314972 -0.42805284 0.9601425
000060 0a de 24 bf 8b 9c c4 bd 2b a1 ec 3d dc f3 c4 3e
       -0.64401305 -0.09600171 0.11554178 0.384673
000070 4f 2c 99 3d 1d c1 7e be 59 ae ab bd b4 09 6b bd
       0.07479154 -0.24878354 -0.083828636 -0.0573823
000080 ff 56 00 3d 12 ad 6b 3e 68 09 fc 3d d2 ce da 3d
       0.031332966 0.2301524 0.123064816 0.10683979
000090 f1 f7 49 bf 1d 23 c6 be 1d 39 17 be 57 18 79 3e
       -0.78893954 -0.38698664 -0.1476788 0.24325691
0000a0 ea 70 3a bf a9 29 02 3e db db 7d bb dc cd c4 bd
       -0.72828543 0.12711205 -0.003873578 -0.09609577
0000b0 7e 0b fe be 66 10 ed be d7 85 23 be 59 a0 90 3e
       -0.49618143 -0.46301574 -0.15969025 0.28247336
0000c0 6d e8 40 be da b2 64 3d f5 f1 20 be 7b aa b4 3b
       -0.18838663 0.05583463 -0.157173 0.005513487
0000d0 da 84 50 3e f4 6d 4e 3f 58 a7 f2 be ad 3d 97 3e
       0.20363179 0.80636525 -0.47393298 0.29539242
0000e0 59 10 ba be 84 cf 91 3e 10 5f c9 3e fd 70 85 bd
       -0.36340597 0.28478634 0.3933034 -0.065156914
0000f0 b6 20 3c 3f 99 6e da be e1 dc cb 3e de 74 5e be
       0.7348741 -0.42662504 0.39816955 -0.21724269
000100 e9 50 81 3f 72 3a 12 3d d6 a8 ed 3d 6f 57 96 be
       1.0102817 0.03570027 0.116044685 -0.29363582
000110 ae 89 17 bf e2 09 10 3f fc 25 25 3e 08 1f 01 3e
       -0.5919446 0.5626508 0.16127771 0.12609494
000120 70 39 7a 3f 24 af 16 3e d7 ca 24 3e e8 ed 2a 3e
       0.9774389 0.14715248 0.16093002 0.16692317
000130 c0 e2 cd bd 34 0d 85 be 1d 6a 4c 3e 63 10 20 be
       -0.10053015 -0.25986636 0.19962354 -0.15631251
000140 ce 9c e9 be a1 92 0b be 09 6a 95 3e ec 73 fd 3d
       -0.45627445 -0.13630153 0.2918246 0.12375626
000150 58 29 60 be 76 96 de be ae bc 4e 3e 7d e1 5b be
       -0.21890771 -0.43474168 0.20189163 -0.21472736
000160 0e 8b 11 be 01 9b ba 3f 0f 05 97 3e ed 86 6a 3f
       -0.14213201 1.4578553 0.29496047 0.9161213
000170 ec 8b fb be 24 41 b7 bd 07 b5 c7 be 94 c8 a9 be
       -0.4913019 -0.089479715 -0.390053 -0.3316084
000180 d1 c5 5e 3f 42 be 0b bf a2 b6 45 be 1c 37 8d be
       0.87020594 -0.54587185 -0.1930795 -0.27581108
000190 8a 72 41 3f 11 5b 02 3f 29 e2 3f 3d 7d 1f 97 3c
       0.755654 0.50920206 0.046846543 0.018447632
0001a0 8d bd 7c 3f 6c ef 14 3d cd cb ee bd 6e 61 73 be
       0.9872673 0.036361143 -0.11659966 -0.23767635
0001b0 78 7b 16 bf c9 b5 f2 3e 97 12 ca bd 30 46 93 3e
       -0.5878215 0.47404316 -0.09866827 0.28764486
0001c0 f5 97 31 3f f0 08 92 3d 50 72 02 3e 17 10 85 3f
       0.69372493 0.07130611 0.1273892 1.0395535
0001d0 66 e3 12 bf 1f 49 bf 3e f3 1d b7 3f 2c a9 8b be
       -0.5737823 0.37360474 1.4306015 -0.27277505
0001e0 be d9 27 3f 8a 31 04 3e b3 af 94 3d 69 af b5 3e
       0.65566623 0.12909523 0.072600745 0.3548539
0001f0 a5 8b a8 3e 7c 77 52 be 02 fa 85 3c 3e d7 66 be
       0.3291904 -0.20553392 0.016354565 -0.22543046
000200 4f b2 0f bf c2 ee 9f be 2f 15 ae be c3 de 91 be
       -0.5613145 -0.31236845 -0.34000537 -0.28490266
000210 7b b7 89 bd 98 29 88 be e7 9b 3e 3e 81 a1 87 be
       -0.06724449 -0.26594234 0.1861416 -0.26490405
000220 31 7e 8f 3f 4a 85 17 3d f2 36 46 3e 56 8a a4 3c
       1.1210386 0.03699235 0.19356897 0.020085495
000230 d0 a2 14 bf cf 79 f6 3e 0c f5 fa bb 58 81 86 3d
       -0.5806093 0.48139808 -0.0076586064 0.06567639
000240 74 49 44 3f 88 96 53 be 56 37 dc be 6c 30 52 be
       0.7667458 -0.20662892 -0.43010968 -0.20526284
000250 21 20 53 bd ed c3 f1 3c 40 f3 fc 3d c4 a0 0a bb
       -0.051544312 0.02951237 0.12351084 -0.0021152953
000260 b8 68 5d 3e 46 7b 3c be a5 0c 2d bc d8 36 6b be
       0.21621978 -0.184064 -0.010562097 -0.2297014
000270 b7 9a 42 bf af c0 20 3f 69 bd 1a 3d 87 ac bb 3d
       -0.76017326 0.6279401 0.03777829 0.09163766
000280 d9 a7 2d bf 97 8c d7 3e a1 a7 ba 3e dd d1 2a 3e
       -0.6783424 0.4209945 0.36456016 0.16681619
000290 db c8 a1 3e 15 73 f6 be 30 d8 0b 3e c5 a2 48 be
       0.31598553 -0.48134676 0.13656688 -0.19593342
0002a0 4e d1 8f 3c ba ea 3f be dc 0b a0 be b7 ea c6 3f
       0.017555859 -0.18741885 -0.31259048 1.5540379
0002b0 56 bc 8d bf b3 8c cb 3e 52 f7 a4 3f 6a ef 1f 3f
       -1.10731 0.39755782 1.2887976 0.6247469
0002c0 0a 7f 8a 3f 95 77 8a be dd a9 51 bc 60 50 db bd
       1.0820019 -0.2704436 -0.012796846 -0.1070869
0002d0 d5 c1 63 bd 25 e9 1b 3f 59 0f 75 3e 42 81 9b be
       -0.055604775 0.60902625 0.23931636 -0.30372053
0002e0 61 5b da 3e 7a e2 bd 3d 4d 6a b0 3e 15 c7 ee bb
       0.42647842 0.092717126 0.344561 -0.007286916
0002f0 c1 dd 4e bf 01 b8 70 be 5c 7c 00 3e 0b 89 ba 3e
       -0.8080712 -0.23507692 0.1254744 0.3643268
000300 d4 0b 72 bf 74 2f 57 be 3a cf a5 be 2a 26 1b bb
       -0.945493 -0.21014196 -0.32384664 -0.002367387
000310 39 a9 d9 3e 7e a6 9f be b3 a1 18 3d 5a ff 9a be
       0.4251192 -0.3118171 0.037263583 -0.30272943
000320 d8 c5 70 bf 26 cc 00 3d b7 30 f0 3c 4a 6a f2 39
       -0.94051886 0.03144469 0.029320104 0.00046237028
000330 7d 4a 1c 3c 35 c0 0f 3f 6b 37 1c be 0f dd 4f be
       0.009539244 0.5615266 -0.15255515 -0.20299171
000340 86 38 5e bf 5d fb a6 bc e7 7c 9f be 20 23 95 be
       -0.86805 -0.020383531 -0.3114998 -0.2912836
000350 cd 54 67 3e 3f a5 d7 bd 6e c9 29 bd 1f 46 62 3e
       0.22590943 -0.10529565 -0.041451864 0.22097062
000360 42 73 0e bf c2 13 85 3e 14 15 e9 3e 7b 9f 1a 3e
       -0.5564462 0.25991637 0.45523894 0.150999
000370 51 fc cb 3d 02 77 da bc e8 cc 24 3e 48 97 90 be
       0.09960235 -0.026668075 0.1609379 -0.28240418
000380 85 14 2b 3f 82 88 fd be f4 5b af 3e 88 07 a0 3e
       0.66828185 -0.4951821 0.34249842 0.31255746
000390 16 de 9e 3d 8d 8a 7a 3f 86 57 a7 bd 5c 1c 94 be
       0.07757203 0.9786766 -0.08170991 -0.28927886
0003a0 e1 8f 68 bf 8c 51 15 3e a5 dc 28 3d 97 7a dd bd
       -0.9084454 0.14581889 0.041226048 -0.10814398
0003b0 b8 57 8c be c1 98 18 3f b5 d4 7e bd 99 1c 90 bd
       -0.27410674 0.59608084 -0.062214572 -0.070367046
0003c0 ab 7e 40 3f be a0 b6 bd 79 57 a6 be 18 1c 21 bd
       0.7519328 -0.08917378 -0.3248861 -0.039333433
0003d0 9e a2 38 bf 77 83 55 3e 15 a2 72 bd 77 c3 20 3d
       -0.72123134 0.20850931 -0.059236605 0.03924891
0003e0 17 89 9b 3e 4a 11 7e 3e 87 95 57 be 51 c9 80 3f
       0.3037803 0.24811283 -0.21053134 1.0061437
0003f0 c6 77 8d be 87 70 ec 3f 6b 90 c3 bf c5 3b 96 bf
       -0.27630442 1.8471841 -1.5278448 -1.173699

value_layer.0.bias f4 [64]
000000 29 3b 62 3c f9 f6 1b be 9f 72 c1 3e 75 14 2c 3e
       0.01380805 -0.15230931 0.3778276 0.16804679
000010 c3 26 07 be c9 f3 dc bd 68 90 1e 3d 39 48 2e be
       -0.1319838 -0.10788686 0.038711935 -0.17019738
000020 b0 7c 37 be 21 4d 54 bd de a2 91 3d d8 b0 4c 3f
       -0.17918658 -0.05183137 0.071111426 0.7995734
000030 9a e9 b2 3d 32 ff 05 be 32 43 68 3e 1a 76 d3 3d
       0.08735962 -0.1308563 0.22681883 0.103252605
000040 a1 5c b6 3d bb 39 08 bd 2e ad 84 bc df 8e aa bd
       0.08904386 -0.03325818 -0.01619586 -0.08328032
000050 d3 71 98 bd d6 57 9d 3f 56 0c a9 3d 8c ce 81 be
       -0.07443585 1.229243 0.08254306 -0.25352895
000060 9e 1d 33 3e 3e 65 ff 3d eb 2f c1 bd 19 16 4b bc
       0.17491767 0.12470482 -0.09432968 -0.012395405
000070 1e 66 91 3e 76 c4 b1 bc 7b 82 76 3c 28 f1 a1 3b
       0.28398222 -0.021700125 0.015045757 0.004942078
000080 dd f2 32 be 5b af ac 3d 64 c5 bd bd c8 e9 4d be
       -0.17475457 0.08431884 -0.09266165 -0.20108712
000090 7c 1f 11 bd 6a 10 9f 3d 17 fb 9b 3c 36 30 c6 3d
       -0.035430416 0.077668026 0.019040627 0.09677164
0000a0 ac a6 6c 3e f7 07 4b be 65 42 cd 3c 28 61 90 3d
       0.23110455 -0.19827257 0.025056073 0.07049781
0000b0 52 42 67 bd a0 ba 06 bd 5a c7 7e 3e 34 dd 3e be
       -0.056459732 -0.032892823 0.24880734 -0.1863907
0000c0 a2 bc 48 3e e0 36 f1 3d b4 ea f8 bd 58 96 76 3d
       0.19603208 0.11778045 -0.12154141 0.060201973
0000d0 97 a8 00 be 06 44 45 3d 21 08 07 3e b1 49 08 3e
       -0.12564312 0.048160575 0.13186695 0.13309361
0000e0 d0 9a 1d 3e 1e 65 2a 3f 7b b7 d6 3e 55 91 d4 3d
       0.15391088 0.6656054 0.4193686 0.103792824
0000f0 8a d7 9d 3e b9 a4 61 be 11 66 80 3d 91 9b 14 bd
       0.30828506 -0.22035493 0.062694676 -0.036281172

value_layer.2.weight f4 [1, 64]
000000 10 53 36 3c 65 e8 14 bd 6e 35 9c be 81 b1 43 bd
       0.011128202 -0.03635444 -0.30509514 -0.047776703
000010 0e 89 b9 bc 16 04 bc bc 71 40 48 3c be f6 66 bc
       -0.02264836 -0.022951167 0.012222395 -0.014096914
000020 ae c8 46 3d aa e2 d2 ba 1d 29 d0 bc e9 7e f0 3e
       0.048531227 -0.001608928 -0.02541023 0.46971825
000030 30 44 a7 3d 2e 4f 4a 3d 20 5f 4c be 7d 69 82 bc
       0.081673026 0.049391918 -0.19958162 -0.015919441
000040 b0 b6 73 3c 61 57 10 3d f2 eb cb 3c d6 eb ee 3c
       0.014875099 0.03523958 0.02489278 0.02916519
000050 5e d6 0f bd 1d 09 4b bf f2 88 42 3d 29 f7 3b bb
       -0.035116546 -0.7931078 0.047493882 -0.0028681254
000060 c3 b8 9c bc 86 16 57 3b 00 a0 e5 bb 12 96 bd bc
       -0.01913107 0.0032819821 -0.007007599 -0.023142848
000070 51 5b d2 3c b0 0c 3a bc 8e 11 38 3c 16 32 be be
       0.025678309 -0.011355564 0.011234654 -0.37147588
000080 9b 43 e0 3c 66 df b0 bc f6 b6 ad 3d 11 8e 9e 3c
       0.027375987 -0.0215909 0.08482163 0.019354852
000090 ff 6d 3f 3d d9 10 27 bd 5b 1f e3 3a 57 58 81 3c
       0.04673576 -0.04078755 0.001732807 0.015789194
0000a0 76 43 94 3d 55 2a 28 3c 44 21 3a bd 4b d1 11 3d
       0.0723943 0.010263999 -0.04544188 0.035599988
0000b0 b5 1e 21 bc 26 4a 3e bb 8d 63 02 bb 42 54 b1 bc
       -0.009833981 -0.0029035895 -0.0019895763 -0.021646623
0000c0 7a 5d e2 3c 79 d1 81 3c e9 ef 44 bc 24 87 02 3d
       0.027632464 0.015846955 -0.01202009 0.03186716
0000d0 89 11 92 3c aa 75 5c bc 97 b6 42 be de 91 95 bc
       0.017830627 -0.013455788 -0.19014965 -0.018258031
0000e0 06 d4 71 bb b6 61 ae 3e 7a a5 83 bd aa f5 00 bb
       -0.0036900057 0.34058923 -0.064280465 -0.0019677677
0000f0 a2 a8 91 3c 55 36 fa bb cc 27 ab be 86 71 ba bc
       0.017780606 -0.0076358714 -0.334288 -0.02275921
